model.pth (torch, 527059 bytes, 12 tensors)

encoder.0.weight f4 [64, 1000]
0.016538197 -0.0011341465 -0.03328444 0.0028139725 -0.010949088 -0.026973937 -0.023394052 0.011320553
-0.038212594 0.01638025 0.0064385077 -0.020075114 -0.018030893 0.0007941687 -0.023817653 -0.00044131023
0.006912699 -0.020289302 -0.00742084 -0.0034036667 -0.0013306739 -0.0017626684 -0.028167447 -0.0030418069
-0.022132413 0.021425081 -0.033617698 0.006426667 -0.030336512 0.008024306 -0.036541786 0.00080325553
0.012265002 0.0018287314 -0.020334838 -0.0008935807 -0.007211401 -0.016116777 -0.0053255046 -0.031078162
-0.022769883 -0.0065521603 0.022359734 -0.014780051 0.021790864 -0.009256201 -0.0053714584 -0.0076126787
-0.031099688 -0.014600386 -0.007021887 -0.01666727 -0.0328174 0.01702862 0.005785022 0.0071507646
-0.0071231104 -0.02253659 -0.036646966 0.005490573 -0.012033704 -0.0042760805 -0.022318294 0.020912793
-0.014033345 -0.006450582 0.02476949 0.0071406015 -0.0018298869 -0.012079898 -0.03393702 -0.012480629
-0.004717033 -0.019609861 -0.030320836 0.0153252315 0.012806126 -0.033516385 -0.007646581 -0.0133364955
0.0066258674 -0.032363437 0.008136293 -0.0071854554 -0.0231599 -0.013313305 0.019838372 -0.0032349173
-0.0038123543 -0.031061336 -0.027982477 -0.025298286 -0.0012734318 0.002979879 0.020714805 0.006160558
-0.0048505943 -0.0021061285 0.02244838 0.007835181 -0.022205234 0.010416228 0.01045704 0.007246034
-0.0150348665 0.010314304 -0.010872576 -0.02566135 -0.0034820014 -0.023472684 -0.022305341 -0.0047219573
-0.016733186 -0.00910445 -0.020647299 0.012549956 -0.006046577 -0.014669378 -0.012870043 -0.017945953
0.018211814 -0.02682082 -0.024517648 -0.017447677 0.009334972 -0.0047866534 0.017999997 -0.037089758
-0.018672302 -0.0074442243 0.0066999625 0.01832265 -0.03019793 -0.03863883 -0.028830653 -0.021264687
-0.009181676 -0.0052401465 0.009378546 -0.007042396 -0.006252669 -0.03110758 0.0077626803 0.008190066
-0.033757474 -0.010383867 -0.025842773 0.011022071 0.014579802 -0.0062641655 -0.0004655342 -0.029187096
-0.016768852 -0.008439051 0.019729748 0.017768504 0.0102479495 0.0049963924 -0.028360358 -0.031125762
-0.014482025 -0.01744759 -0.0062976875 0.0022702953 -0.029501246 0.0073747383 -0.03762676 0.007001898
-0.035290718 0.001672693 -0.03100551 -0.02304134 -0.03028257 0.005793063 -0.026400601 -0.024361888
-0.012408797 0.017402902 -0.018686252 -0.016965238 0.016026318 0.013353225 0.0008900161 0.008551412
-0.026769428 -0.017154321 0.0014163003 -0.030594625 0.00056263176 0.009015593 -0.007514836 -0.036724832
-0.002680428 -0.03006159 -0.033853125 -0.016024629 0.0056846547 -0.026283287 0.015713317 0.013904253
-0.0058701634 -0.003470349 0.005147504 0.0037865988 0.012270893 -0.004639223 0.010409711 0.016133897
0.000481486 -0.013494452 0.01116638 -0.030794252 0.016838191 0.016671872 -0.008141143 -0.008667141
0.0041702264 -0.013166256 -0.035072576 -0.004317903 -0.0070540593 0.012956566 0.0019466106 -0.010544708
-0.02047078 -0.015511733 -0.0075638085 -0.013540247 0.0040389807 -0.024725977 0.015229066 -0.009699377
0.014389766 0.0058395024 0.020402346 -0.03574808 -0.025641814 0.0061917664 0.01961012 -0.030262304
0.02553343 -0.0070786197 0.0048460197 -0.008452629 -0.0031703664 0.017365532 -0.0016806405 -0.008933177
-0.021543123 0.013194248 0.011992743 0.0015699699 -0.032960083 -0.0055875215 0.009286172 -0.016757032
00000000: 1d7b 873c a4a7 94ba 4455 08bd a06a 383b
00000010: ce63 33bc 72f8 dcbc e2a4 bfbc d779 393c
00000020: cf84 1cbd e02f 863c 1efa d23b 9174 a4bc
00000030: 86b5 93bc c22f 503a 3d1d c3bc a85f e7b9
00000040: ec83 e23b c035 a6bc 852a f3bb 0d10 5fbb
00000050: 026a aeba 5609 e7ba 6bbf e6bc 0d59 47bb
00000060: 094f b5bc a783 af3c b6b2 09bd ca96 d23b
00000070: 4784 f8bc 6178 033c d7ac 15bd 9191 523a
00000080: 26f3 483c 0bb2 ef3a 3f95 a6bc 303f 6aba
00000090: 9e4d ecbb 5507 84bc 9281 aebb a197 febc
000000a0: e887 babc 81b3 d6bb c32b b73c 0728 72bc
000000b0: c182 b23c 52a7 17bc 0f03 b0bb c773 f9bb
000000c0: c6c4 febc 7536 6fbc dc17 e6bb cc89 88bc
000000d0: 8a6b 06bd 9b7f 8b3c 4890 bd3b f650 ea3b
000000e0: fb68 e9bb a89e b8bc 211b 16bd 44ea b33b
000000f0: 0329 45bc 5d1e 8cbb dbd4 b6bc 4e51 ab3c
00000100: 1dec 65bc 675f d3bb 63e9 ca3c b5fb e93b
00000110: d1d8 efba c4ea 45bc 8b01 0bbd 8d7b 4cbc
00000120: 5791 9abb dca4 a0bc 6763 f8bc ae16 7b3c
00000130: c9d0 513c 7a48 09bd 2c90 fabb 5181 5abc
00000140: ce1d d93b 868f 04bd 164e 053c f873 ebbb
00000150: d5b9 bdbc 0c20 5abc 1584 a23c e800 54bb
00000160: b1d8 79bb 5874 febc 823b e5bc 5a3e cfbc
00000170: 48e9 a6ba 134a 433b 18b2 a93c 82de c93b
00000180: bcf1 9ebb f906 0abb aae5 b73c 225f 003c
00000190: c0e7 b5bc d4a8 2a3c 0154 2b3c 2470 ed3b
000001a0: cd54 76bc 54fd 283c e422 32bc c037 d2bc
000001b0: 4a32 64bb c949 c0bc b1b9 b6bc a6ba 9abb
000001c0: 0914 89bc d52a 15bc 8624 a9bc 559e 4d3c
000001d0: 5d22 c6bb d557 70bc dfdc 52bc 6403 93bc
000001e0: f130 953c 56b7 dbbc 3cd9 c8bc 6eee 8ebc
000001f0: b6f1 183c 5cd9 9cbb bb74 933c 6eeb 17bd
00000200: a8f6 98bc aeee f3bb 5c8b db3b 6219 963c
00000210: a661 f7bc c043 1ebd 432e ecbc 4833 aebc
00000220: be6e 16bc 89b5 abbb 79a8 193c e6c3 e6bb
00000230: 30e3 ccbb 53d5 febc 155e fe3b a02f 063c
00000240: 4745 0abd 1821 2abc 39b4 d3bc eb95 343c
00000250: 1fe0 6e3c a143 cdbb f112 f4b9 c719 efbc
00000260: d55e 89bc f243 0abc 48a0 a13c 418f 913c
00000270: 04e7 273c c7b8 a33b fb53 e8bc 74fb febc
00000280: 0446 6dbc 40ee 8ebc d55c cebb 3cc9 143b
00000290: 99ac f1bc caa7 f13b 841e 1abd 2d70 e53b
000002a0: 008d 10bd 433e db3a 44ff fdbc 31c1 bcbc
000002b0: 2713 f8bc bcd3 bd3b 1346 d8bc 9592 c7bc
000002c0: 444e 4bbc 8890 8e3c e913 99bc affa 8abc
000002d0: a049 833c 7cc7 5a3c f84f 693a 391b 0c3c
000002e0: 8f4b dbbc 3887 8cbc 27a3 b93a 94a1 fabc
000002f0: 947d 133a 23b6 133c 033f f6bb c76c 16bd
00000300: 1faa 2fbb b943 f6bc 93a9 0abd 1546 83bc
00000310: 5746 ba3b 0c50 d7bc 37b9 803c aace 633c
00000320: 805a c0bb cb6e 63bb 65ac a83b 9628 783b
00000330: db0b 493c a004 98bb 7e8d 2a3c 3c2b 843c
00000340: f56f fc39 d617 5dbc 31f3 363c 3a44 fcbc
00000350: 3ff0 893c 7393 883c 6e62 05bc a000 0ebc
00000360: 65a6 883b 48b7 57bc 43a8 0fbd 327d 8dbb
00000370: bd25 e7bb c747 543c 6a25 ff3a b6c3 2cbc
00000380: 56b2 a7bc ec24 7ebc d3d9 f7bb ead7 5dbc
00000390: 6d59 843b 228e cabc 5583 793c 23ea 1ebc
000003a0: 0ec3 6b3c 4c59 bf3b d222 a73c 946c 12bd
000003b0: c80e d2bc 4de4 ca3b 67a5 a03c a7e8 f7bc
000003c0: 7c2b d13c c4f3 e7bb 5ccb 9e3b e57c 0abc
000003d0: ecc5 4fbb 2942 8e3c f048 dcba 765c 12bc
000003e0: 347b b0bc b02c 583c 367d 443c 73c7 cd3a
000003f0: 2701 07bd 8717 b7bb 0725 183c 0b46 89bc

encoder.0.bias f4 [64]
-0.021180471 0.0037058035 -0.03570728 0.03379124 0.048239034 0.006512797 -0.072321355 0.18211466
0.0861891 0.089284115 -0.0072954465 0.051788446 -0.025875479 0.08188298 -0.033924315 -0.021494761
-0.0013106941 0.01756377 0.07447834 -0.027316358 0.14622682 0.012604711 -0.07694454 -0.02320749
0.08894338 0.052129608 -0.003623723 -0.0066440254 0.05125938 -0.024864163 -0.038198873 0.10220156
-0.041649688 0.05957752 -0.040697157 0.07161042 -0.027535321 0.10428862 -0.00042318908 -0.030828988
-0.06383535 -0.007953875 -0.025307488 0.091228314 -0.021305477 -0.0205361 0.07555648 -0.0937457
-0.00083971204 -0.010449824 -1.0070431e-05 -0.021437535 0.024575239 0.038550988 0.107252374 -0.013383056
0.09911338 -0.014917534 -0.047682825 0.09283231 0.06735357 -0.043722242 -0.045463495 0.0036593378
00000000: ab82 adbc 11dd 723b cc41 12bd af68 0a3d
00000010: 4b96 453d 4d69 d53b 381d 94bd 447c 3a3e
00000020: e983 b03d 97da b63d a40e efbb 1f20 543d
00000030: d0f8 d3bc 44b2 a73d 39f4 0abd c815 b0bc
00000040: 99cb abba e5e1 8f3c 1a88 983d 8ec6 dfbc
00000050: 7cbc 153e fd83 4e3c 1995 9dbd a21d bebc
00000060: f227 b63d db85 553d fc7b 6dbb 20b6 d9bb
00000070: 5bf5 513d eeaf cbbc 6c76 1cbd 0d4f d13d
00000080: dd98 2abd 8f07 743d 10b2 26bd 7ca8 923d
00000090: c191 e1bc 4695 d53d 7adf ddb9 138d fcbc
000000a0: 1cbc 82bd f850 02bc a651 cfbc e9d5 ba3d
000000b0: d388 aebc 533b a8bc 5bbd 9a3d bffd bfbd
000000c0: 1f20 5cba bd35 2bbc 2cf4 28b7 c59d afbc
000000d0: 0352 c93c a4e7 1d3d 22a7 db3d 9b44 5bbc
000000e0: f5fb ca3d ac68 74bc 114f 43bd de1e be3d
000000f0: abf0 893d 1816 33bd ee37 3abd 80d1 6f3b

encoder.2.weight f4 [12, 64]
-0.012577498 0.31417006 -0.07727688 0.17322403 0.021046484 -0.22263023 -0.036592335 -0.013162679
-0.013125847 -0.015137954 -0.043416895 -0.3370833 0.005832153 -0.25499725 0.017190237 -0.10201132
-0.07371537 -0.13343886 -0.12562825 -0.048421856 -0.102336295 -0.022702202 0.29579544 0.02658301
-0.22560473 -0.022375673 -0.1016984 0.09032535 0.09867402 -0.12496251 0.010600573 0.020828271
-0.12714711 0.22603633 0.16091488 -0.04934979 0.04946697 -0.0013093223 -0.055314984 0.0504827
0.53223675 -0.01686002 0.06643265 0.19551998 0.044713233 -0.08995083 -0.1809389 0.15634279
-0.026676342 -0.09522292 -0.09765294 0.072045825 -0.22661002 0.052880548 0.08864551 0.0077335145
0.11639836 0.11151997 0.08955832 -0.0872924 -0.0107905725 0.0021969066 0.012444197 0.06525207
-0.0005679343 0.046637908 -0.041136794 -0.054950465 0.36909065 0.19086564 -0.13102366 0.093897246
0.10000254 -0.007973901 -0.085751414 -0.07959091 -0.07652416 0.015608166 -0.0080683185 -0.04724685
0.00045334466 0.16496995 0.1636254 -0.050471324 0.07363222 -0.06535134 0.26410586 -0.1044786
-0.15161662 0.008173078 -0.08959578 0.082390815 0.078892745 -0.09786663 0.07837842 0.078469254
0.070134506 0.07240572 -0.4114548 0.08265157 0.06231293 0.17567539 -0.07970995 -0.10227162
0.24630451 -0.090885825 -0.03742315 0.3030278 0.116601214 -0.011094372 -0.1977007 0.06822909
0.09541677 -0.041988216 -0.09526576 -0.10296909 -0.034416914 0.12997434 0.10023465 -0.0075306036
0.2975361 -0.0701359 0.0075718975 0.09149028 0.038310047 0.10169402 0.36463207 -0.063413195
0.12131296 -0.050391823 0.10727537 0.036113888 0.062089905 0.09040856 -0.11928387 -0.056015763
-0.023163773 -0.012503877 0.026787728 0.053111978 -0.08625817 -0.010551692 0.07140659 -0.009081483
-0.030842273 0.07439042 -0.097955324 -0.08731578 -0.06878711 -0.038874075 0.0321569 0.043495655
-0.04326795 -0.04352584 -0.004884273 0.03399737 -0.023634456 0.055487365 -0.06635909 -0.1264487
-0.09466137 -0.091586664 0.09311248 -0.011605084 -0.027781203 -0.045469657 0.110692635 0.0802445
0.042129636 0.11914079 -0.09347211 -0.101502076 -0.09486465 0.014487207 -0.030271515 -0.048016712
-0.0073134005 0.11954902 -0.11804336 0.124654666 -0.07732621 0.046625383 0.043335233 -0.038616776
-0.006796837 0.044430614 -0.0038017035 0.112777874 0.01773228 -0.05321185 -0.021894366 0.030784473
0.09979629 0.014881804 0.036977895 -0.07509739 0.041821957 -0.0049921894 -0.13629991 -0.052780952
-0.059846424 -0.116304696 0.045941908 -0.10785515 -0.072040044 -0.052234605 0.08473449 -0.02804415
-0.122483455 -0.136709 -0.06701143 -0.038404413 -0.13831158 -0.042003058 -0.03129864 0.04361207
0.036594298 0.07680879 0.08173291 0.021795228 -0.07930326 0.07907167 0.1149699 -0.08121745
0.113662295 -0.058942165 0.032542158 -0.044150252 0.051033538 -0.09168185 -0.09172608 0.021426564
0.08680404 0.07607779 -0.022048067 -0.13067342 0.036355518 -0.08031659 -0.07672292 -0.13944307
-0.08551999 0.031145591 -0.12747557 -0.002273608 -0.07500598 -0.054706838 -0.073063165 0.011801069
-0.032657184 -0.109509565 -0.07295034 0.05786524 -0.101721935 -0.054518383 0.10308846 -0.13801543
00000000: da11 4ebc e6da a03e 5743 9ebd a461 313e
00000010: ad69 ac3c 2ef9 63be d8e1 15bd 47a8 57bc
00000020: cb0d 57bc 2e05 78bc ead5 31bd 2f96 acbe
00000030: a51b bf3b 008f 82be 8ad2 8c3c 50eb d0bd
00000040: 15f8 96bd 32a4 08be b1a4 00be ff55 46bd
00000050: b195 d1bd f8f9 b9bc 8072 973e 9dc4 d93c
00000060: ed04 67be 304d b7bc 4047 d0bd 7ffc b83d
00000070: 9b15 ca3d 58ec ffbd 07ae 2d3c 0da0 aa3c
00000080: da32 02be 1176 673e dfc6 243e 0123 4abd
00000090: e19d 4a3d 919d abba f791 62bd f3c6 4e3d
000000a0: ab40 083f 061e 8abc d70d 883d 6436 483e
000000b0: 3925 373d 2438 b8bd 0c48 39be 5318 203e
000000c0: 5888 dabc 3c04 c3bd 44fe c7bd c38c 933d
000000d0: 750c 68be 4699 583d c78b b53d 6c69 fd3b
000000e0: 4362 ee3d 9564 e43d 5a6a b73d 5cc6 b2bd
000000f0: f1ca 30bc faf9 0f3b bfe2 4b3c e1a2 853d
00000100: 6de1 14ba 6407 3f3d 0e7f 28bd bd13 61bd
00000110: 73f9 bc3e 4872 433e 112b 06be 334d c03d
00000120: 22ce cc3d f7a4 02bc 709e afbd 8f00 a3bd
00000130: b3b8 9cbd 65b9 7f3c fb30 04bc ea85 41bd
00000140: e4ae ed39 e2ed 283e 6b8d 273e 05bb 4ebd
00000150: 7dcc 963d ecd6 85bd e238 873e e0f8 d5bd
00000160: 6341 1bbe 60e8 053c fe7d b7bd 84bc a83d
00000170: 8592 a13d 4d6e c8bd dd84 a03d 7db4 a03d
00000180: aea2 8f3d 7349 943d 34aa d2be 3a45 a93d
00000190: d83b 7f3d 40e4 333e f83e a3bd c873 d1bd
000001a0: 4037 7c3e 5922 babd 0449 19bd 7626 9b3e
000001b0: 9ecc ee3d 2bc5 35bc 0d72 4abe b1bb 8b3d
000001c0: de69 c33d d6fb 2bbd b21a c3bd 75e1 d2bd
000001d0: c0f8 0cbd fe17 053e d347 cd3d 48c3 f6bb
000001e0: a756 983e 69a3 8fbd ae1d f83b 425f bb3d
000001f0: ffea 1c3d f444 d03d 0eb1 ba3e c7de 81bd
00000200: ee72 f83d a867 4ebd 30b3 db3d 28ec 133d
00000210: fc51 7e3d 2028 b93d 1a4b f4bd c970 65bd
00000220: f4c1 bdbc 10dd 4cbc f071 db3c f28b 593d
00000230: 20a8 b0bd 01e1 2cbc 9e3d 923d 80ca 14bc
00000240: efa8 fcbc 015a 983d cd9c c8bd 9ed2 b2bd
00000250: 42e0 8cbd 6c3a 1fbd f4b6 033d 8028 323d
00000260: bc39 31bd 2748 32bd 400c a0bb d440 0b3d
00000270: 0c9d c1bc b846 633d 46e7 87bd c57b 01be
00000280: d2dd c1bd ca91 bbbd c2b1 be3d 4023 3ebc
00000290: 6895 e3bc 643e 3abd d2b2 e23d 3a57 a43d
000002a0: 2090 2c3d 1600 f43d 4e6e bfbd 52e0 cfbd
000002b0: 6648 c2bd c05b 6d3c f8fb f7bc 2cad 44bd
000002c0: 40a5 efbb 1ed6 f43d b8c0 f1bd f24a ff3d
000002d0: 345d 9ebd 42fa 3e3d 4980 313d a02c 1ebd
000002e0: 00b8 debb e0fc 353d 0026 79bb 16f8 e63d
000002f0: 4943 913c abf4 59bd d05b b3bc b82f fc3c
00000300: ff61 cc3d cfd2 733c 2276 173d a9cc 99bd
00000310: 804d 2b3d 8595 a3bb 3492 0bbe d730 58bd
00000320: 8621 75bd 2831 eebd 952d 3c3d 29e3 dcbd
00000330: bb89 93bd f4f3 55bd 4789 ad3d d8bc e5bc
00000340: 9bd8 fabd 72fd 0bbe 4a3d 89bd f24d 1dbd
00000350: 8da1 0dbe 660b 2cbd 0133 00bd 92a2 323d
00000360: e7e3 153d ed4d 9d3d 9563 a73d e88b b23c
00000370: bf69 a2bd 54f0 a13d 5775 eb3d 5655 a6bd
00000380: c7c7 e83d 576d 71bd ed4a 053d e5d6 34bd
00000390: 8b08 513d b2c3 bbbd e2da bbbd c386 af3c
000003a0: 51c6 b13d acce 9b3d 269e b4bc 41cf 05be
000003b0: 86e9 143d 067d a4bd e820 9dbd 2aca 0ebe
000003c0: 1b25 afbd 0a25 ff3c f588 02be d000 15bb
000003d0: bc9c 99bd 4714 60bd 24a2 95bd 4559 413c
000003e0: 8ac3 05bd 8d46 e0bd fd66 95bd 1a04 6d3d
000003f0: 9753 d0bd ab4e 5fbd 0b20 d33d eb53 0dbe

encoder.2.bias f4 [12]
-0.14429188 0.15928988 -0.0590222 0.07242371 -0.066902444 0.07461662 0.16068776 0.107416406
-0.1839668 0.083112486 0.057767235 0.105334684
00000000: 40c1 13be e31c 233e 43c1 71bd e252 943d
00000010: 2604 89bd 99d0 983d 558b 243e 22fd db3d
00000020: cb61 3cbe e136 aa3d 569d 6c3d b6b9 d73d

encoder.4.weight f4 [3, 12]
-0.67637074 0.29541254 -0.07437689 -0.11700552 0.008164664 0.24039465 0.39550138 0.0070833284
-0.5584483 0.16130887 -0.12364042 -0.0023524275 -0.21799773 0.07141604 -0.02366072 -0.12799357
-0.015551158 -0.114805415 -0.27992865 0.21054283 -0.21933734 0.10605376 -0.091870405 0.20103411
-0.45869833 -0.26075062 0.1485304 -0.085137255 0.096498534 -0.2578352 0.21447831 -0.015827052
0.22691746 0.3961656 0.17054227 0.16249168
00000000: a226 2dbf 5040 973e e952 98bd 97a0 efbd
00000010: 15c5 053c 042a 763e 287f ca3e 441b e83b
00000020: 78f6 0ebf 272e 253e 3037 fdbd 2f2b 1abb
00000030: cc3a 5fbe 9342 923d 20d4 c1bc bf10 03be
00000040: 49ca 7ebc 1a1f ebbd cf52 8fbe 8a98 573e
00000050: f899 60be b732 d93d 8d26 bcbd e3db 4d3e
00000060: 82da eabe 1b81 85be 5a18 183e 715c aebd
00000070: 06a1 c53d fa02 84be 34a0 5b3e bca7 81bc
00000080: 0d5d 683e 38d6 ca3e a2a2 2e3e 3864 263e

encoder.4.bias f4 [3]
0.070274934 -0.07585165 -0.14164492
00000000: 4eec 8f3d 1c58 9bbd 5e0b 11be

decoder.0.weight f4 [12, 3]
-0.10642772 0.26583576 0.941408 -0.36835504 -0.56129795 0.74749416 -0.5330059 0.03863578
0.08869294 -0.502209 -0.523988 -0.28871194 0.3534889 0.7129537 0.14345613 -0.16344415
-0.20817688 -0.31225234 -0.03955763 0.17160332 -0.27965778 0.38093644 -0.028437737 0.19368446
0.01827111 0.28353682 -0.12096649 -0.158531 -0.72155076 -0.39111617 -0.53413016 0.5435098
-0.2081722 -0.39698485 0.11781347 0.10529255
00000000: c7f6 d9bd a01b 883e 1d00 713f 0899 bcbe
00000010: 39b1 0fbf c75b 3f3f 1373 08bf 8d40 1e3d
00000020: a5a4 b53d c590 00bf 1424 06bf 0dd2 93be
00000030: 7ffc b43e 2284 363f 2ae6 123e e75d 27be
00000040: 522c 55be 8adf 9fbe 2e07 22bd c8b8 2f3e
00000050: 4e2f 8fbe 1a0a c33e 42f6 e8bc 3855 463e
00000060: 4bad 953c bd2b 913e 47bd f7bd f355 22be
00000070: 8db7 38bf 6140 c8be c1bc 08bf 7523 0b3f
00000080: 182b 55be 9941 cbbe 3048 f13d 9fa3 d73d

decoder.0.bias f4 [12]
0.0054266686 0.48029107 0.45032007 0.17211623 0.053024188 -0.16475858 -0.1405863 0.124864295
-0.3134564 0.17598453 -0.1733886 0.4166977
00000000: 32d2 b13b b6e8 f53e 5a90 e63e 3d3f 303e
00000010: e42f 593d 79b6 28be dbf5 0fbe dab8 ff3d
00000020: 5b7d a0be 4a35 343e c88c 31be 6759 d53e

decoder.2.weight f4 [64, 12]
-0.15490255 0.062909335 0.07354331 -0.08794762 -0.060791284 -0.0466394 0.022565734 -0.3017626
0.07241263 -0.09478356 0.23432046 -0.15919836 0.015262898 0.19985643 -0.009930238 -0.7030185
-0.051994525 -0.0470878 -0.07997743 0.15131694 0.24138007 0.15078185 0.12891924 0.029676795
0.28194574 0.030529551 0.082903564 0.3227461 -0.28934306 -0.15440102 -0.2689464 0.092680365
-0.083010525 -0.35266197 -0.18220949 -0.26181737 0.08477462 0.08320392 -0.22079398 0.040668413
-0.09901617 0.08480312 -0.2021278 -0.062284786 0.010942052 0.05528182 -0.2723206 0.19958112
-0.0873101 -0.11823996 -0.0037530642 -0.47457695 -0.1602693 0.2551857 0.1738531 -0.03266107
-0.052748047 0.14513406 -0.13200472 0.2518825 -0.24480444 0.3869109 0.40814635 0.23284963
0.23969623 0.28116438 0.14344752 -0.38707772 0.23178393 -0.4775803 0.018276066 0.3295105
0.11489036 -0.031333745 0.07952492 -0.28761405 -0.22431263 0.2854176 0.15122631 0.026391178
-0.25526676 -0.039968044 -0.10342341 -0.19177245 0.0045948112 -0.14931533 0.23238209 -0.059755318
0.017031036 -0.06975015 -0.17238745 -0.2520534 -0.279172 -0.25475675 -0.010098836 0.04848886
-0.22038081 -0.057314698 0.06920437 -0.3002002 -0.14430375 -0.10274283 -0.18428986 0.12839238
-0.17880404 0.09802184 0.21121934 0.06795341 0.0018840131 0.12087658 0.32001615 0.3386044
-0.11293168 -0.2047388 -0.24460305 -0.22080478 0.26628962 0.080735534 -0.18239304 -0.101392455
0.09577672 -0.1266524 0.08777848 0.25299022 0.13106357 0.067137845 -0.122913696 0.058819488
0.1806466 -0.13050511 -0.2665484 0.12730947 -0.016393246 -0.06763973 0.11443425 0.12703408
-0.10589487 0.040528663 0.13634034 -0.38117257 0.23799354 -0.10569721 0.0976537 -0.1898263
0.22796762 -0.4341185 0.08295808 -0.4170532 0.2887196 0.21598761 -0.29611254 -0.27979064
-0.2778128 0.14277245 0.09806029 -0.06641931 0.05030979 0.3639894 -0.26136276 0.040690817
-0.13216126 0.18867548 0.1729471 0.09881871 0.15399791 0.15835647 -0.15077344 -0.09130997
-0.00028676348 -0.09570796 0.0060386956 -0.06734676 -0.058135353 -0.2490008 0.020339457 -0.045504835
0.08991014 0.029400727 -0.13577914 0.09444023 0.1788431 -0.16900411 0.1823358 -0.048060063
-0.042822547 -0.10910599 0.16249636 0.26455456 -0.24755625 -0.27713323 -0.020630242 -0.1696745
-0.09667146 -0.08244763 -0.21750687 -0.06413918 -0.18966143 0.19727977 0.0016528326 0.2769511
0.18904284 0.3250802 0.0011343821 -0.0932624 0.11146966 0.12461651 -0.017958779 0.1329902
0.10550758 0.0541239 0.2711347 -0.15868355 0.22582714 -0.2023741 -0.15274243 -0.15150481
0.23396467 -0.28084186 0.13359442 -0.113344505 -0.22680938 0.24371001 0.045110308 -0.21083127
-0.19130923 0.00017987548 -0.05241049 -0.20653787 -0.2885106 0.092355564 -0.4902936 -0.9964306
-0.3010493 0.2789966 -0.102877796 0.20180881 0.06671013 0.1463861 -0.07393257 -0.42619616
0.9999283 0.024720626 0.05836595 -0.3617989 0.032002024 0.24212638 -0.13076238 -0.07166553
0.15350963 0.21771052 -0.15375541 -0.06717126 0.37486747 0.077875085 0.29213482 0.22416022
00000000: c69e 1ebe 9cd6 803d e09d 963d e21d b4bd
00000010: 4800 79bd f508 3fbd c6db b83c a180 9abe
00000020: 134d 943d e21d c2bd b4f1 6f3e e504 23be
00000030: 3c11 7a3c 2aa7 4c3e 70b2 22bc 05f9 33bf
00000040: 36f8 54bd 23df 40bd 35cb a3bd d4f2 1a3e
00000050: 562c 773e 8f66 1a3e 6803 043e c01c f33c
00000060: 315b 903e 1c19 fa3c 58c9 a93d fa3e a53e
00000070: c624 94be 4d1b 1ebe 58b3 89be 34cf bd3d
00000080: 6c01 aabd 1c90 b4be 2095 3abe ed0c 86be
00000090: 519e ad3d d166 aa3d d117 62be ec93 263d
000000a0: fdc8 cabd 42ad ad3d 97fa 4ebe 551e 7fbd
000000b0: 4b46 333c 316f 623d 9b6d 8bbe fe5e 4c3e
000000c0: a3cf b2bd cb27 f2bd f8f5 75bb c0fb f2be
000000d0: a31d 24be b3a7 823e 8c06 323e 9dc7 05bd
000000e0: 560e 58bd 069e 143e 3f2c 07be bef6 803e
000000f0: 04ae 7abe 2f19 c63e 8ff8 d03e 2270 6e3e
00000100: ee72 753e c7f4 8f3e e8e3 123e 0d2f c6be
00000110: c458 6d3e 6885 f4be b0b7 953c 9ab5 a83e
00000120: a34b eb3d d057 00bd f6dd a23d 2642 93be
00000130: 36b2 65be 4122 923e 12db 1a3e 5032 d83c
00000140: 53b2 82be 88b5 23bd a7cf d3bd ff5f 44be
00000150: 1290 963b 1ee6 18be 92f5 6d3e fec1 74bd
00000160: ac84 8b3c 2bd9 8ebd 5686 30be 250d 81be
00000170: a2ef 8ebe 7a6f 82be 9775 25bc 419c 463d
00000180: 82ab 61be d1c2 6abd 05bb 8d3d d7b3 99be
00000190: 5dc4 13be d56a d2bd 7bb6 3cbe 4b79 033e
000001a0: 6818 37be adbf c83d e249 583e 282b 8b3d
000001b0: fdf0 f63a 248e f73d 28d9 a33e 8e5d ad3e
000001c0: ba48 e7bd 0ca7 51be 3979 7abe a61a 62be
000001d0: 1d57 883e ac58 a53d 3ec5 3abe d9a6 cfbd
000001e0: 9626 c43d 2bb1 01be 34c5 b33d ef87 813e
000001f0: 8735 063e 917f 893d 2dba fbbd b4ec 703d
00000200: 6cfb 383e 22a3 05be 0879 88be 6a5d 023e
00000210: 214b 86bc b386 8abd 815c ea3d 3915 023e
00000220: 69df d8bd 6201 263d cd9c 0b3e 0d29 c3be
00000230: 94b4 733e c777 d8bd aafe c73d d361 42be
00000240: 5870 693e c844 debe ede5 a93d ff87 d5be
00000250: 0ed3 933e db2b 5d3e 109c 97be b840 8fbe
00000260: 7b3d 8ebe f132 123e d5d3 c83d d906 88bd
00000270: a311 4e3d d25c ba3e 57d1 85be 6aab 263d
00000280: 4855 07be 2534 413e 0b19 313e 7761 ca3d
00000290: a1b1 1d3e 3328 223e 5a64 1abe b900 bbbd
000002a0: be58 96b9 8902 c4bd 40e0 c53b 19ed 89bd
000002b0: 561f 6ebd 11fa 7ebe ef9e a63c 4763 3abd
000002c0: cf22 b83d cbd9 f03c b009 0bbe e169 c13d
000002d0: a522 373e 6a0f 2dbe 3cb6 3a3e a1da 44bd
000002e0: b266 2fbd f672 dfbd 7265 263e b273 873e
000002f0: 637f 7dbe 68e4 8dbe c100 a9bc 27bf 2dbe
00000300: b0fb c5bd 4eda a8bd 1fba 5ebe 675b 83bd
00000310: 9b36 42be b503 4a3e dca3 d83a 89cc 8d3e
00000320: 7294 413e e970 a63e 8caf 943a 5b00 bfbd
00000330: 354a e43d f136 ff3d 4a1e 93bc 952e 083e
00000340: 5c14 d83d 06b1 5d3d 2bd2 8a3e f17d 22be
00000350: 3b3f 673e 283b 4fbe 8368 1cbe 1424 1bbe
00000360: 6f94 6f3e 81ca 8fbe facc 083e 2a21 e8bd
00000370: b840 68be 1e8f 793e 96c5 383d 27e4 57be
00000380: 91e6 43be f59c 3c39 62ac 56bd aa7e 53be
00000390: a9b7 93be ea24 bd3d c307 fbbe 1316 7fbf
000003a0: 2223 9abe a4d8 8e3e 98b1 d2bd f8a6 4e3e
000003b0: 529f 883d 3de6 153e f669 97bd 6236 dabe
000003c0: 4dfb 7f3f e982 ca3c 2211 6f3d b53d b9be
000003d0: 8e14 033d faef 773e 93e6 05be 61c5 92bd
000003e0: a131 1d3e 82ef 5e3e 0f72 1dbe 1691 89bd
000003f0: a1ee bf3e f97c 9f3d b292 953e 428a 653e

decoder.2.bias f4 [64]
0.11628687 -0.079713896 0.11096472 -0.08952644 0.01419419 -0.24321473 -0.096759416 0.10545495
-0.038318653 -0.026595157 -0.14831437 0.16771862 0.14469203 -0.043023676 0.028653415 -0.18502766
-0.0076255696 -0.22116336 -0.123288006 0.101038225 -0.018976234 -0.24374637 -0.110688075 -0.18949811
0.16392222 -0.18848118 -0.0729558 -0.26845688 0.11326818 -0.18725853 0.049396425 -0.023665505
-0.1867315 -0.2516538 0.16307911 -0.16964595 0.09960505 -0.0007601434 -0.16191195 0.12776063
-0.04297441 -0.15236315 -0.28391168 0.01094233 -0.22223641 -0.052513357 -0.18752052 0.03152274
-0.11857304 -0.016184138 0.095846295 -0.2103314 -0.25308722 -0.023164466 -0.0871969 -0.10329677
0.0951378 -0.07319115 -0.22025007 0.029350623 -0.13401729 -0.08030165 0.123037845 -0.13183221
00000000: cf27 ee3d 0a41 a3bd 7941 e33d a359 b7bd
00000010: bf8e 683c 480d 79be cd29 c6bd c4f8 d73d
00000020: 05f4 1cbd 16de d9bc b9df 17be 6ebe 2b3e
00000030: 262a 143e 9839 30bd 91ba ea3c e477 3dbe
00000040: eadf f9bb a678 62be 6c7e fcbd 21ed ce3d
00000050: 0c74 9bbc a698 79be 6eb0 e2bd cb0b 42be
00000060: 3adb 273e 3601 41be da69 95bd 2e73 89be
00000070: 26f9 e73d b3c0 3fbe e853 4a3d 29de c1bc
00000080: 8b36 3fbe c4d8 80be 36fe 263e abb7 2dbe
00000090: bcfd cb3d 5c44 47ba 3fcc 25be afd3 023e
000000a0: ef05 30bd 1605 1cbe df5c 91be 7547 333c
000000b0: f191 63be 3f18 57bd 6105 40be fd1d 013d
000000c0: 6cd6 f2bd 9994 84bc 104b c43d 1d61 57be
000000d0: a694 81be 68c3 bdbc 4a94 b2bd 428d d3bd
000000e0: 9bd7 c23d 3ee5 95bd 3c89 61be b870 f03c
000000f0: d43b 09be 3175 a4bd 44fb fb3d 06ff 06be

decoder.4.weight f4 [1000, 64]
0.071511604 0.10437699 -0.0045131007 0.0394665 0.14779957 -0.0005693713 0.061901078 -0.07601973
-0.04474017 -0.041372452 -0.09080094 0.04304391 0.034038253 -0.02454777 -0.032635182 -0.007807538
0.0060475096 -0.08434546 -0.017310143 -0.05053886 -0.0059229336 0.0022513915 0.07708943 0.010530412
0.030502155 -0.03079544 0.060534302 0.028764114 0.07517898 0.11486374 0.041706182 -0.08957266
-0.09129886 -0.018204957 -0.014984937 0.05589369 0.004384526 0.06522478 -0.084291354 -0.00072966126
-0.011065826 -0.0049975254 0.06714013 -0.021267753 -0.07357974 -0.04379867 0.06705944 0.06979877
-0.10051952 -0.0013998892 -0.0273378 -0.010355264 -0.11204028 -0.07791217 -0.040705614 -0.013116619
0.017579108 -0.06874673 0.08039971 -0.0026543618 -0.09802988 -0.11516927 0.104454376 0.038271487
0.0018587986 0.10890879 0.012953082 -0.110200316 0.083676316 0.008326562 -0.043127805 -0.007654098
-0.12482749 -0.026526105 0.003033787 0.00074372394 -0.055766296 -0.009102341 -0.017752644 0.028779224
0.04788592 -0.018509686 0.05098334 -0.088710934 -0.092926845 0.103109 0.033339415 0.044242755
0.21734221 -0.10644272 0.016269524 -0.032095745 -0.0076557044 -0.046348974 0.1345404 -0.09022049
0.012000293 -0.0092071295 -0.009211556 0.013093755 -0.017783122 -0.05937776 0.040364146 -0.02163601
0.11529839 0.044840164 0.11997825 -0.017969564 -0.07759553 -0.035620086 -0.0035142154 0.041487925
-0.043514445 -0.124606766 -0.05232604 -0.08513628 -0.0041175336 0.07939546 -0.028808143 -0.05609032
0.06721829 -0.096349314 0.02648145 0.08979291 0.014880404 -0.11496429 0.040312506 0.038257316
0.08050122 0.079862714 0.0028758734 0.08661701 0.02219611 0.057106927 -0.12282926 -0.052875612
0.03539684 0.09172081 0.08470069 -0.04287294 0.039054606 0.06309892 0.1859971 -0.02706422
-0.034190908 0.051918566 0.027482122 -0.024480332 -0.0063613085 -0.02881196 0.023349168 0.06646782
0.06546746 -0.045731634 0.033214647 -0.05913776 -0.05892007 -0.027046649 -0.035074625 0.03247012
0.12039842 0.020646617 0.044538267 0.043691695 0.047411844 -0.09656368 0.1085455 -0.00073820393
-0.06283787 -0.057048615 -0.08000955 0.053697187 -0.067597434 -0.03936408 0.032217115 0.0069157663
-0.09252255 -0.019525884 -0.049433265 -0.08459544 -0.09773648 0.0380805 0.0868089 0.08540467
-0.03118059 0.06584382 0.0749758 0.0023857227 -0.07709044 -0.056640133 0.023204299 0.07633366
-0.015970487 0.029535828 -0.14864568 0.06369382 0.041098293 0.028665964 0.10367681 -0.01977826
0.07347609 0.066806205 -0.061862946 0.052957624 -0.09127929 0.01838166 0.10834831 -0.00930436
-0.019529168 -0.07721931 0.060364693 -0.078401506 -0.036643058 0.056618847 -0.015122648 0.045583814
0.025266247 -0.08500169 -0.0148893 -0.036449626 0.037235152 -0.07019441 0.05900449 0.12497393
-0.006677538 -0.081998885 0.054204606 0.022706658 0.096667595 0.07806632 0.11841519 0.10031296
-0.005665198 0.05052416 0.044614077 -0.00082755584 -0.11453369 -0.067401625 0.06328434 0.007333384
0.091707945 0.112703435 0.028517254 0.0919642 -0.022294149 0.0043435097 0.10067249 -0.006121254
0.0122970585 0.0051746517 0.06984733 -0.051800642 -0.098304436 0.07062107 -0.053349294 -0.047740683
00000000: ad74 923d 9ac3 d53d a2e2 93bb a0a7 213d
00000010: c558 173e dc41 15ba fc8b 7d3d 3bb0 9bbd
00000020: 7841 37bd 2976 29bd d8f5 b9bd d04e 303d
00000030: b26b 0b3d 6818 c9bc 78ac 05bd 60d6 ffbb
00000040: 302a c63b 50bd acbd 00ce 8dbc d601 4fbd
00000050: 2b15 c2bb 158c 133b 10e1 9d3d c087 2c3c
00000060: a8df f93c b846 fcbc d1f2 773d b8a2 eb3c
00000070: 70f7 993d ae3d eb3d 1ad4 2a3d df71 b7bd
00000080: e6fa babd 9022 95bc 6283 75bc c8f0 643d
00000090: 12ac 8f3b 9294 853d f2a0 acbd bd46 3fba
000000a0: 704d 35bc 48c2 a3bb c480 893d b639 aebc
000000b0: fab0 96bd 3c66 33bd 7656 893d a8f2 8e3d
000000c0: 2edd cdbd 7d7c b7ba 86f3 dfbc 20a9 29bc
000000d0: 6075 e5bd 6a90 9fbd eeba 26bd 16e7 56bc
000000e0: 1002 903c 16cb 8cbd 9aa8 a43d cdf4 2dbb
000000f0: e4c3 c8bd dedd ebbd 2dec d53d 90c2 1c3d
00000100: eea2 f33a 920b df3d 2a39 543c b4b0 e1bd
00000110: 7d5e ab3d 226c 083c c8a6 30bd 3acf fabb
00000120: 8ea5 ffbd 464d d9bc 80d2 463b 78f6 423a
00000130: 336b 64bd fc21 15bc fe6d 91bc 68c2 eb3c
00000140: 0724 443d a0a1 97bc e8d3 503d 14ae b5bd
00000150: 6e50 bebd d02a d33d e98e 083d e437 353d
00000160: f58e 5e3e a4fe d9bd aa47 853c d476 03bd
00000170: b4dc fabb 6cd8 3dbd f5c4 093e 85c5 b8bd
00000180: e09c 443c 80d9 16bc 11ec 16bc 3087 563c
00000190: e9ad 91bc 1836 73bd e054 253d 003e b1bc
000001a0: 9021 ec3d 52aa 373d 28b7 f53d e834 93bc
000001b0: 68ea 9ebd 5ee6 11bd c04e 66bb 3eef 293d
000001c0: 343c 32bd d531 ffbd d453 56bd ee5b aebd
000001d0: 60ec 86bb 169a a23d 0eff ebbc f7be 65bd
000001e0: bea9 893d ca52 c5bd a0ef d83c 58e5 b73d
000001f0: f0cc 733c 6672 ebbd ba1e 253d b4b3 1c3d
00000200: d3dd a43d 108f a33d 2679 3c3b 4264 b13d
00000210: 9ed4 b53c f4e8 693d e88d fbbd 1994 58bd
00000220: 47fc 103d 1fd8 bb3d 8e77 ad3d 899b 2fbd
00000230: b9f7 1f3d 023a 813d 0676 3e3e c8b5 ddbc
00000240: c40b 0cbd 90a8 543d 3022 e13c fa8a c8bc
00000250: 8672 d0bb 0f07 ecbc c146 bf3c 4820 883d
00000260: ce13 863d 1851 3bbd 150c 083d 703a 72bd
00000270: 2c56 71bd ef90 ddbc 69aa 0fbd 63ff 043d
00000280: 7293 f63d 1823 a93c c26d 363d 10f6 323d
00000290: ec32 423d 2ec3 c5bd 1a4d de3d 0784 41ba
000002a0: 24b1 80bd cfab 69bd 0cdc a3bd 95f1 5b3d
000002b0: 8670 8abd 3b3c 21bd 18f6 033d a79d e23b
000002c0: 767c bdbd bff4 9fbc 897a 4abd 6040 adbd
000002d0: 102a c8bd 4cfa 1b3d ddc8 b13d a5e8 ae3d
000002e0: 706e ffbc 20d9 863d ea8c 993d c959 1c3b
000002f0: 98e1 9dbd 7cff 67bd f116 be3c d254 9c3d
00000300: 8ad4 82bc 1ff5 f13c 9336 18be e871 823d
00000310: af56 283d e2d4 ea3c 8254 d43d 0406 a2bc
00000320: a27a 963d b1d1 883d 0064 7dbd 18ea 583d
00000330: a3f0 babd 2395 963c b8e5 dd3d 5071 18bc
00000340: a2fb 9fbc 2825 9ebd f840 773d f890 a0bd
00000350: 0817 16bd 2ae9 673d fcc4 77bc 18b6 3a3d
00000360: 29fb ce3c 5e15 aebd 40f2 73bc 344c 15bd
00000370: e383 183d 16c2 8fbd b1ae 713d 55f2 ff3d
00000380: 40cf dabb 08ef a7bd a605 5e3d 5003 ba3c
00000390: a9f9 c53d 3ce1 9f3d aa83 f23d e270 cd3d
000003a0: 20a3 b9bb 6cf2 4e3d 40bd 363d 55f0 58ba
000003b0: a490 eabd dd09 8abd 389b 813d e24c f03b
000003c0: 60d1 bb3d 0fd1 e63d 049d e93c ba57 bc3d
000003d0: 38a2 b6bc 0054 8e3b 612d ce3d cd94 c8bb
000003e0: 9a79 493c 2090 a93b 1e0c 8f3d e92c 54bd
000003f0: d653 c9bd c8a1 903d ca84 5abd bc8b 43bd

decoder.4.bias f4 [1000]
0.0042910487 0.0005247502 -0.00833957 -0.0016055536 0.009605249 0.008251309 -0.0020388195 -0.002378285
0.006443056 0.017159112 0.005145025 -0.0024502205 0.0063287662 0.0165035 0.0032567037 -0.004047501
-0.009430303 0.004087886 0.0053562066 0.0070824027 0.012758633 0.013582815 -0.00072855246 0.0045865686
0.0163415 0.013717175 0.0038771592 -0.00016345835 0.011839845 0.06867277 0.016841143 0.0109070605
0.00945965 0.004464429 0.0067869993 0.004146408 -9.32187e-06 0.011857128 0.00338283 0.004557239
0.0068335854 0.016583938 -0.00064207637 0.010351693 0.008934686 0.010663257 -0.00022217861 0.010471708
0.004424437 0.0019050529 0.0025097555 0.0029489943 0.01171676 0.0026195429 0.014718432 0.013561997
0.016185347 -0.0040566954 -0.00040895276 -0.0061820373 0.033722315 0.012942813 0.0012093509 -0.002857334
0.019128479 0.030668613 0.0076023806 0.012107852 0.005339232 0.028554318 -0.005184733 0.03206979
0.009849361 0.0104345605 -0.004194618 0.0035324306 0.005814713 -0.0035577724 -0.004908815 0.024754347
0.005181488 0.014176819 0.012384154 0.014701391 0.023774385 0.007082842 0.010415143 -0.0077917264
0.008103466 -0.00794535 0.0006476134 4.091265e-05 0.0069805 0.011660825 -0.002998325 0.0035750659
0.001157054 0.009255986 0.015465757 0.008381167 0.0030493934 0.009205632 0.00014663627 0.0037466055
-0.0034019481 0.0055816392 0.010499419 0.010592796 0.004927644 0.010322087 0.012593574 0.008982936
-0.0025866139 0.008843173 0.008143382 0.011678301 -0.0018897018 0.017676473 0.0064559067 0.010326348
0.0067164833 -0.014341024 0.003538159 0.002103541 0.006554266 0.011605386 0.0046133497 0.008219374
0.013199698 0.011207626 0.0045307158 0.004274099 0.004306956 0.008699674 0.0080612 0.008894437
0.0095592 0.024448913 0.0095179295 -0.00041175832 0.014516794 0.018507546 0.0069266288 0.007961814
0.00438649 -0.003920368 0.01632768 0.012786866 0.010551795 0.0061400635 0.0070135086 0.014228504
0.013170086 0.0006648049 -0.00013397857 0.00571941 0.010274656 0.0028214762 0.0053658425 -0.0013502452
0.00027741722 0.0128879 0.00011443783 0.0033145226 0.0031902941 0.014449321 0.0056227567 -0.001848693
0.0030068213 0.008596077 0.0017759632 0.0047955243 0.011498045 0.01897012 0.013222944 0.022853876
-0.0050071604 0.009384136 0.011339968 0.0021424296 0.0012205017 0.00048191982 -0.001994131 -0.006863426
0.0076340656 0.009372023 0.0028319163 -0.010332397 0.02207221 0.0069210418 0.015172609 0.014454563
-0.0024401175 0.005353092 -0.0058446988 0.005654087 0.042906106 -0.0012118213 0.005456508 0.011861253
0.017168188 0.01184146 0.014030418 0.0038465261 0.007573048 0.009500978 -0.00033875077 0.021436406
-0.0018778912 0.012641848 -0.0030081018 0.008567216 -0.0017162291 0.0040160515 0.07296406 0.012806496
0.014260497 0.005356812 -0.0046271863 -0.07035228 0.013423272 0.02077411 0.007534402 0.012625286
0.004221711 0.0007347549 -0.0052128704 0.018763995 -0.0062887226 0.0049955472 0.009154899 -0.0070877187
0.009709507 0.0006793588 0.0246381 0.013657909 0.008957022 0.023840532 0.028107645 -0.011551534
0.017951887 -0.0031024143 0.0052656946 0.0030871553 0.004240021 0.008271774 0.022967719 0.0025378466
0.005098663 0.008920292 0.021431373 0.008811638 0.012902006 0.019985583 0.03383744 0.015607418
00000000: ed9b 8c3b 648f 093a b1a2 08bc 7071 d2ba
00000010: 565f 1d3c 8030 073c b79d 05bb 00dd 1bbb
00000020: 4520 d33b 4491 8c3c 9997 a83b e193 20bb
00000030: 8a61 cf3b 5932 873c 6c6e 553b e6a0 84bb
00000040: 8f81 1abc acf3 853b 1e83 af3b 8013 e83b
00000050: 9609 513c 758a 5e3c 54fc 3eba ed4a 963b
00000060: 9cde 853c 01be 603c f017 7e3b 0466 2bb9
00000070: e9fb 413c 4fa4 8c3d 70f6 893c 87b3 323c
00000080: a6fc 1a3c 584a 923b 7a65 de3b 97de 873b
00000090: 2065 1cb7 6644 423c 78b2 5d3b e454 953b
000000a0: 45ec df3b 0adb 873c 0451 28ba 269a 293c
000000b0: ca62 123c f1b4 2e3c 9ef8 68b9 8791 2b3c
000000c0: defa 903b f8b2 f93a b67a 243b ea43 413b
000000d0: a7f7 3f3c a3ac 2b3b 9425 713c 2333 5e3c
000000e0: 2297 843c 07ee 84bb b668 d6b9 b092 cabb
000000f0: 6920 0a3d 180e 543c 1583 9e3a 1c42 3bbb
00000100: 54b3 9c3c be3c fb3c 641d f93b 0360 463c
00000110: b9f4 ae3b bfea e93c b1e4 a9bb 9d5b 033d
00000120: 375f 213c b8f5 2a3c 0273 89bb 5a80 673b
00000130: 5989 be3b 8429 69bb 20da a0bb a1c9 ca3c
00000140: 79c9 a93b e345 683c e8e6 4a3c 1ade 703c
00000150: 80c2 c23c 2f17 e83b 47a4 2a3c bd51 ffbb
00000160: 66c4 043c 372d 02bc 99c4 293a a099 2b38
00000170: aebc e43b 0c0d 3f3c 8c7f 44bb a74b 6a3b
00000180: 4aa8 973a 6ba6 173c 1664 7d3c 2a51 093c
00000190: 55d8 473b 38d3 163c 60c2 1939 9c89 753b
000001a0: 38f3 5ebb 2fe6 b63b c105 2c3c 688d 2d3c
000001b0: 1378 a13b f91d 293c 4755 4e3c 2a2d 133c
000001c0: 2e84 29bb f5e2 103c d26b 053c 5856 3f3c
000001d0: dfaf f7ba 40ce 903c 128c d33b d82f 293c
000001e0: f215 dc3b 9df6 6abc 75e0 673b 90db 093b
000001f0: 2bc5 d63b 8424 3e3c 952b 973b 8eaa 063c
00000200: 8c43 583c 31a0 373c 6676 943b be0d 8c3b
00000210: 5e21 8d3b 1489 0e3c 2013 043c f9b9 113c
00000220: 319e 1c3c 1649 c83c 17f1 1b3c 44e1 d7b9
00000230: d9d7 6d3c 239d 973c c6f8 e23b 4572 023c
00000240: 8cbc 8f3b 6e76 80bb a0c1 853c 0180 513c
00000250: 70e1 2c3c 9632 c93b 93d1 e53b ac1e 693c
00000260: 58c7 573c 4d46 2e3a 997c 0cb9 e369 bb3b
00000270: 0857 283c 84e8 383b f3d3 af3b b6fa b0ba
00000280: 4f72 9139 c527 533c 58fe ef38 7638 593b
00000290: 4114 513b d8bc 6c3c 1a3f b83b d84f f2ba
000002a0: 170e 453b 8fd6 0c3c 70c7 e83a c623 9d3b
000002b0: 4c62 3c3c 3a67 9b3c 0ca5 583c 0d38 bb3c
000002c0: 1b13 a4bb ebbf 193c 46cb 393c 0168 0c3b
000002d0: 3ef9 9f3a 2faa fc39 f7af 02bb 97e6 e0bb
000002e0: 2f27 fa3b 1d8d 193c ac97 393b 3749 29bc
000002f0: c8d0 b43c e8c9 e23b 8996 783c d5d2 6c3c
00000300: 61ea 1fbb fe68 af3b e384 bfbb eb45 b93b
00000310: 50be 2f3d fad5 9eba 82cc b23b b355 423c
00000320: 4da4 8c3c af02 423c d7df 653c 0016 7c3b
00000330: 5527 f83b fda9 1b3c 5c9a b1b9 679b af3c
00000340: 9323 f6ba c11f 4f3c 9323 45bb 825d 0c3c
00000350: 18f3 e0ba 1599 833b 2e6e 953d 56d2 513c
00000360: dca4 693c 3288 af3b a79f 97bb db14 90bd
00000370: 49ed 5b3c 772e aa3c 25e3 f63b 4ada 4e3c
00000380: 4756 8a3b 919c 403a bad0 aabb f3b6 993c
00000390: a111 cebb b0b1 a33b 6efe 153c 1840 e8bb
000003a0: a014 1f3c ff16 323a d7d5 c93c 6cc5 5f3c
000003b0: 79c0 123c 384d c33c 0142 e63c a542 3dbc
000003c0: d60f 933c e051 4bbb d98b ac3b df51 4a3b
000003d0: e0ef 8a3b 5686 073c cc26 bc3c 0052 263b
000003e0: af12 a73b 6b26 123c d990 af3c b05e 103c
000003f0: ef62 533c ceb8 a33c 2199 0a3d 41b6 7f3c
